…
INFO    successfully read file /home/robocup/falcons/data/internal/vision/multiCam/calibration/20210625_155231_r10_cam3.bin
INFO    dewarp initialized
INFO    wait for connection with yolo
INFO    connected to yolo


## darknet log
robocup@coach [master] darknet $ ./detect_genius_f100 
chmod +x *.sh
./:
-c 2 -json_port 8070 -thresh 0.20 -ext_output
 CUDA-version: 11030 (11030), cuDNN: 8.2.1, GPU count: 1  
 OpenCV version: 4.2.0
Demo
 0 : compute_capability = 500, cudnn_half = 0, GPU: NVIDIA Quadro M2000M 
net.optimized_memory = 0 
mini_batch = 1, batch = 1, time_steps = 1, train = 0 
   layer   filters  size/strd(dil)      input                output
   0 Create CUDA-stream - 0 
 Create cudnn-handle 0 
conv     32       3 x 3/ 1    416 x 416 x   3 ->  416 x 416 x  32 0.299 BF
   1 conv     64       3 x 3/ 2    416 x 416 x  32 ->  208 x 208 x  64 1.595 BF
   2 conv     64       1 x 1/ 1    208 x 208 x  64 ->  208 x 208 x  64 0.354 BF
...
 159 conv   1024       3 x 3/ 1     13 x  13 x 512 ->   13 x  13 x1024 1.595 BF
 160 conv     30       1 x 1/ 1     13 x  13 x1024 ->   13 x  13 x  30 0.010 BF
 161 yolo
[yolo] params: iou loss: ciou (4), iou_norm: 0.07, obj_norm: 1.00, cls_norm: 1.00, delta_norm: 1.00, scale_x_y: 1.05
nms_kind: greedynms (1), beta = 0.600000 
Total BFLOPS 59.592 
avg_outputs = 490304 
 Allocate additional workspace_size = 3.12 MB 
Loading weights from yolov4_final.weights_20201112...
 seen 64, trained: 3840 K-images (60 Kilo-batches_64) 
…
